…
ransformer(input_size=input_dim, d_model=64, n_heads=4, n_layers=2)\n\n# Simulate a forward pass\ndummy_x = torch.randn(8, 30, input_dim)\ndummy_vol = torch.randn(8, 30, 4)\noutput = model(dummy_x, dummy_vol)\n\nprint(f\"Model Output Shape (Batch, Prediction): {output.shape}\")\nprint(\"\\nModel Architecture:\")\nprint(model)","key":"vM1Mj217lm"},{"type":"outputs","id":"g-8QS3qBNZFsYq4KEixEi","children":[{"type":"output","jupyter_data":{"name":"stdout","output_type":"stream","text":"Model Output Shape (Batch, Prediction): torch.Size([8, 1])\n\nModel Architecture:\nVAATransformer(\n  (embedding): Linear(in_features=6, out_features=64, bias=True)\n  (layers): ModuleList(\n    (0-1): 2 x VAAEncoderLayer(\n      (self_attn): VolatilityAwareAttention(\n        (W_Q): Linear(in_features=64, out_features=64, bias=True)\n        (W_K): Linear(in_features=64, out_features=64, bias=True)\n        (W_V): Linear(in_features=64, out_features=64, bias=True)\n        (W_O): Linear(in_features=64, out_features=64, bias=True)\n        (vol_net): Sequential(\n          (0): Linear(in_features=4, out_features=16, bias=True)\n          (1): ReLU()\n          (2): Linear(in_features=16, out_features=4, bias=True)\n          (3): Sigmoid()\n        )\n      )\n      (linear1): Linear(in_features=64, out_features=2048, bias=True)\n      (dropout): Dropout(p=0.1, inplace=False)\n      (linear2): Linear(in_features=2048, out_features=64, bias=True)\n      (norm1): LayerNorm((64,), eps=1e-05, elementwise_affine=True)\n      (norm2): LayerNorm((64,), eps=1e-05, elementwise_affine=True)\n      (dropout1): Dropout(p=0.1, inplace=False)\n      (dropout2): Dropout(p=0.1, inplace=False)\n    )\n  )\n  (decoder): Linear(in_features=64, out_features=1, bias=True)\n)\n"},"children":[],"key":"CXWsqOEB3J"}],"key":"jZDgCNrwOZ"}],"key":"cNFFLgUMYX"},{"type":"block","kind":"notebook-content","children":[{"type":"heading","depth":3,"position":{"start":{"line":1,"column":1},"end":{"line":1,"column":1}},"children":[{"type":"text","value":"C.6 The Training Loop (Learning)","position":{"start":{"line":1,"column":1},"end":{"l
…
